…
/home/huangti/miniconda3/envs/spam/lib/python3.11/site-packages/transformers/generation/configuration_utils.py:606: UserWarning: `pad_token_id` should be positive but got -1. This will cause errors when batch generating, if there is padding. Please set `pad_token_id` explicitly as `model.generation_config.pad_token_id=PAD_TOKEN_ID` to avoid errors in generation
  warnings.warn(
wandb: WARNING Saving files without folders. If you want to preserve subdirectories pass base_path to wandb.save, i.e. wandb.save("/mnt/folder/file.h5", base_path="/mnt")
Update steps:   0%|                                   | 0/10000 [00:00<?, ?it/s]2025-01-22 04:58:34.599 | INFO     | __main__:main:169 - 
LlamaForCausalLM(
  (model): LlamaModel(
    (embed_tokens): Embedding(32000, 768, padding_idx=31999)
    (layers): ModuleList(
      (0-11): 12 x LlamaDecoderLayer(
        (self_attn): LlamaAttention(
          (q_proj): Linear(in_features=768, out_features=768, bias=False)
          (k_proj): Linear(in_features=768, out_features=768, bias=False)
          (v_proj): Linear(in_features=768, out_features=768, bias=False)
          (o_proj): Linear(in_features=768, out_features=768, bias=False)
          (rotary_emb): LlamaRotaryEmbedding()
        )
        (mlp): LlamaMLP(
          (gate_proj): Linear(in_features=768, out_features=2048, bias=False)
          (down_proj): Linear(in_features=2048, out_features=768, bias=False)
          (up_proj): Linear(in_features=768, out_features=2048, bias=False)
          (act_fn): SiLU()
        )
        (input_layernorm): LlamaRMSNorm()
        (post_attention_layernorm): LlamaRMSNorm()
      )
    )
    (norm): LlamaRMSNorm()
  )
  (lm_head): Linear(in_features=768, out_features=32000, bias=False)
)

2025-01-22 04:58:34.600 | INFO     | __main__:main:170 - Total params: 134.11M
2025-01-22 04:58:34.600 | INFO     | __main__:main:177 - Trainable params: 134.11M
2025-01-22 04:58:34.600 | INFO     | __main__:main:183 - Saving model to /scratch-shared/HTJ/llama_130m_adamw_qweight_simulate every 100000 update steps
wandb: WARNING Saving files without folders. If you want to preserve subdirectories pass base_path to wandb.save, i.e. wandb.save("/mnt/folder/file.h5", base_path="/mnt")
Update steps:   0%|                                   | 0/10000 [00:00<?, ?it/s]2025-01-22 04:58:35.482 | INFO     | __main__:main:169 - 
LlamaForCausalLM(
  (model): LlamaModel(
    (embed_tokens): Embedding(32000, 768, padding_idx=31999)
    (layers): ModuleList(
      (0-11): 12 x LlamaDecoderLayer(
        (self_attn): LlamaAttention(
          (q_proj): Linear(in_features=768, out_features=768, bias=False)
          (k_proj): Linear(in_features=768, out_features=768, bias=False)
          (v_proj): Linear(in_features=768, out_features=768, bias=False)
          (o_proj): Linear(in_features=768, out_features=768, bias=False)
          (rotary_emb): LlamaRotaryEmbedding()
        )
        (mlp): LlamaMLP(
          (gate_proj): Linear(in_features=768, out_features=2048, bias=False)
          (down_proj): Linear(in_features=2048, out_features=768, bias=False)
          (up_proj): Linear(in_features=768, out_features=2048, bias=False)
          (act_fn): SiLU()
        )
        (input_layernorm): LlamaRMSNorm()
        (post_attention_layernorm): LlamaRMSNorm()
      )
    )
    (norm): LlamaRMSNorm()
  )
  (lm_head): Linear(in_features=768, out_features=32000, bias=False)
)

2025-01-22 04:58:35.482 | INFO     | __main__:main:170 - Total params: 134.11M
2025-01-22 04:58:35.483 | INFO     | __main__:main:177 - Trainable params: 134.11M
2025-01-22 04:58:35.483 | INFO     | __main__:main:183 - Saving model to /scratch-shared/HTJ/llama_130m_adamw_qweight_simulate every 100000 update steps
/home/huangti/miniconda3/envs/spa
…
